qwen_7b_extra/extra/lm_head.pth (torch, 50416 bytes, 1 tensors)

extra_lm_head.weight bf16 [6, 4096]
0	0x3b87	0.004119873
1	0x39d8	0.0004119873
2	0xbbd1	-0.006378174
3	0x3b89	0.004180908
4	0x3bc4	0.0059814453
5	0x3c02	0.00793457
6	0x3c04	0.008056641
7	0xbbd4	-0.0064697266
8	0x3c0d	0.008605957
9	0x3bb9	0.005645752
10	0xb977	-0.00023555756
11	0xbb80	-0.00390625
12	0xbaed	-0.0018081665
13	0xbb44	-0.0029907227
14	0xbb9f	-0.004852295
15	0xbbb5	-0.0055236816
16	0xbbbc	-0.0057373047
17	0x3bb9	0.005645752
18	0xbb0b	-0.0021209717
19	0xbc13	-0.008972168
20	0x3b3b	0.0028533936
21	0xb98a	-0.0002632141
22	0xbc38	-0.011230469
23	0x3ac6	0.0015106201
24	0x3bfc	0.0076904297
25	0x3b86	0.0040893555
26	0xbbf7	-0.007537842
27	0x3bc0	0.005859375
28	0x3a76	0.0009384155
29	0x3bf1	0.0073547363
30	0x3ae7	0.0017623901
31	0x3b9d	0.0047912598
32	0x3c07	0.008239746
33	0x3b8c	0.004272461
34	0x3a99	0.0011672974
35	0xbc07	-0.008239746
36	0xbc11	-0.008850098
37	0xbab2	-0.0013580322
38	0x3b55	0.003250122
39	0x3a5a	0.000831604
40	0xbc00	-0.0078125
41	0x3bd4	0.0064697266
42	0xba98	-0.001159668
43	0xbc3b	-0.011413574
44	0xbc11	-0.008850098
45	0x3c07	0.008239746
46	0xbc2e	-0.010620117
47	0x3ba4	0.005004883
48	0xbbc2	-0.00592041
49	0x3c0f	0.008728027
50	0xbb20	-0.0024414062
51	0xbbd5	-0.006500244
52	0x3bb1	0.0054016113
53	0x3b37	0.0027923584
54	0xbbb0	-0.0053710938
55	0xbb53	-0.0032196045
56	0xbb71	-0.0036773682
57	0x3be7	0.0070495605
58	0x3b00	0.001953125
59	0x3ba5	0.0050354004
60	0xbaa6	-0.0012664795
61	0xbb69	-0.0035552979
62	0x3be8	0.007080078
63	0x3b8e	0.004333496
64	0xbb9b	-0.0047302246
65	0x3be2	0.0068969727
66	0x3c00	0.0078125
67	0x3ba4	0.005004883
68	0x3bd3	0.006439209
69	0x3b80	0.00390625
70	0xbb96	-0.0045776367
71	0x3b9c	0.004760742
72	0xbb16	-0.0022888184
73	0xbbb8	-0.0056152344
74	0x3bb4	0.005493164
75	0xbbc0	-0.005859375
76	0x3ba9	0.0051574707
77	0x3ba6	0.005065918
78	0x3bd3	0.006439209
79	0x3aa0	0.0012207031
80	0x3b4e	0.0031433105
81	0xbac2	-0.0014801025
82	0xbbf4	-0.007446289
83	0x3be2	0.0068969727
84	0xbb86	-0.0040893555
85	0x3bb2	0.005432129
86	0x3b4f	0.0031585693
87	0xbac5	-0.0015029907
88	0xbbd1	-0.006378174
89	0xbb73	-0.0037078857
90	0xbc00	-0.0078125
91	0xba10	-0.0005493164
92	0x3c00	0.0078125
93	0xbbbc	-0.0057373047
94	0x3ad3	0.0016098022
95	0xbbee	-0.0072631836
96	0x3bd4	0.0064697266
97	0x397e	0.00024223328
98	0x3c01	0.007873535
99	0xbbc5	-0.006011963
100	0xbc08	-0.008300781
101	0xbba8	-0.005126953
102	0xbb53	-0.0032196045
103	0x3ba4	0.005004883
104	0xbc0d	-0.008605957
105	0xbbfc	-0.0076904297
106	0x3b87	0.004119873
107	0x3c09	0.008361816
108	0xbc2b	-0.010437012
109	0xbbab	-0.005218506
110	0xbbc7	-0.006072998
111	0x3ba8	0.005126953
112	0xbbb4	-0.005493164
113	0x3b97	0.0046081543
114	0xbbc0	-0.005859375
115	0xbc0e	-0.008666992
116	0xbb7d	-0.0038604736
117	0x3bd1	0.006378174
118	0xbba2	-0.0049438477
119	0xbba7	-0.0050964355
120	0xbaef	-0.0018234253
121	0x3c02	0.00793457
122	0xbb86	-0.0040893555
123	0x3c19	0.009338379
124	0xbbeb	-0.007171631
125	0x3a8e	0.001083374
126	0x3c0d	0.008605957
127	0xbbae	-0.0053100586
128	0x3b99	0.0046691895
129	0xbb47	-0.003036499
130	0xbb57	-0.0032806396
131	0xbb7f	-0.0038909912
132	0x3bde	0.0067749023
133	0xbbf7	-0.007537842
134	0x3bb3	0.0054626465
135	0x3bb9	0.005645752
136	0xbbab	-0.005218506
137	0xbc37	-0.011169434
138	0xbbdd	-0.0067443848
139	0xbc00	-0.0078125
140	0x3bbd	0.0057678223
141	0xbbd2	-0.0064086914
142	0xbb91	-0.004425049
143	0xb957	-0.00020503998
144	0x3b4b	0.0030975342
145	0x3bc4	0.0059814453
146	0x3bc1	0.0058898926
147	0x3bc6	0.0060424805
148	0xbb05	-0.002029419
149	0xbb93	-0.004486084
150	0x3be2	0.0068969727
151	0x3c00	0.0078125
152	0xbbc2	-0.00592041
153	0xbbcc	-0.006225586
154	0xbc13	-0.008972168
155	0xbb35	-0.0027618408
156	0x3bdc	0.006713867
157	0xbc36	-0.011108398
158	0xbbb3	-0.0054626465
159	0x3b97	0.0046081543
160	0x3b32	0.0027160645
161	0x3c00	0.0078125
162	0x3bce	0.006286621
163	0xbc00	-0.0078125
164	0x3c04	0.008056641
165	0xbb56	-0.0032653809
166	0xbbb5	-0.0055236816
167	0x3c20	0.009765625
168	0x3c20	0.009765625
169	0x3c00	0.0078125
170	0x399b	0.00029563904
171	0x3c00	0.0078125
172	0x3bfd	0.0077209473
173	0xbbff	-0.0077819824
174	0x3be1	0.006866455
175	0xbbeb	-0.007171631
176	0xbc10	-0.0087890625
177	0x3a0b	0.0005302429
178	0xbbf4	-0.007446289
179	0xbb89	-0.004180908
180	0xbb45	-0.0030059814
181	0xb9ad	-0.0003299713
182	0x3be9	0.0071105957
183	0xbace	-0.0015716553
184	0x3bb2	0.005432129
185	0x3a4a	0.00077056885
186	0xbbd7	-0.0065612793
187	0xb98e	-0.0002708435
188	0xba8c	-0.0010681152
189	0x39b9	0.0003528595
190	0x3bdb	0.0066833496
191	0xbbba	-0.0056762695
192	0x3c21	0.00982666
193	0x3af5	0.0018692017
194	0x3bb5	0.0055236816
195	0x3bf5	0.0074768066
196	0x3be2	0.0068969727
197	0x3bd6	0.0065307617
198	0x3c0e	0.008666992
199	0x3bc9	0.006134033
200	0x3c10	0.0087890625
201	0x3bcd	0.0062561035
202	0x3c09	0.008361816
203	0xba06	-0.00051116943
204	0xbb87	-0.004119873
205	0xbaf6	-0.001876831
206	0x3bd4	0.0064697266
207	0xbbff	-0.0077819824
208	0x3bf9	0.007598877
209	0xbb98	-0.004638672
210	0x3bad	0.005279541
211	0xbb82	-0.003967285
212	0xbb99	-0.0046691895
213	0x3be1	0.006866455
214	0xbae8	-0.0017700195
215	0xbc14	-0.009033203
216	0x3c04	0.008056641
217	0xbbe1	-0.006866455
218	0x3ba5	0.0050354004
219	0xbba2	-0.0049438477
220	0x3bb6	0.005554199
221	0x3bb7	0.005584717
222	0xbbc1	-0.0058898926
223	0x3bce	0.006286621
224	0x3c06	0.008178711
225	0x3c15	0.009094238
226	0x3b87	0.004119873
227	0xbba4	-0.005004883
228	0x3a8f	0.0010910034
229	0xbbb0	-0.0053710938
230	0xbb7c	-0.0038452148
231	0x3bc8	0.0061035156
232	0xbbe4	-0.006958008
233	0xbb5f	-0.00340271
234	0x3c13	0.008972168
235	0xbbcb	-0.0061950684
236	0x3c03	0.0079956055
237	0xbbc6	-0.0060424805
238	0x3c0c	0.008544922
239	0xbb9e	-0.0048217773
240	0x3bee	0.0072631836
241	0xbb99	-0.0046691895
242	0x3bd7	0.0065612793
243	0x3b08	0.0020751953
244	0x3bcd	0.0062561035
245	0xba64	-0.000869751
246	0x3b3b	0.0028533936
247	0x3ba5	0.0050354004
248	0xb9af	-0.000333786
249	0xbbc9	-0.006134033
250	0xbbb0	-0.0053710938
251	0x3bfb	0.007659912
252	0x3b85	0.004058838
253	0x3ba5	0.0050354004
254	0x3c02	0.00793457
255	0xbb51	-0.003189087
